point_cloud_classifier-RGB.pth (torch, 67880 bytes, 4 tensors)

fc1.weight f4 [2048, 3]
0	0xbd682324	-0.056674138
1	0x3f101829	0.56286865
2	0x3e260bef	0.1621549
3	0xbea1fe8e	-0.31639522
4	0x3f02c92e	0.51088226
5	0xbeda0582	-0.42582327
6	0x3dbfefa1	0.093718775
7	0xbcc85100	-0.024452686
8	0x3ee17d42	0.44040877
9	0xbe92979d	-0.28631297
10	0x3e945100	0.28968048
11	0xbe76e3ec	-0.24110383
12	0x3e58489a	0.21121445
13	0x3e970339	0.29494646
14	0xbec68c50	-0.38778925
15	0x3e9c25c3	0.3049756
16	0x3e182516	0.14857897
17	0x3f1e5f12	0.61863816
18	0xbde7539c	-0.11295244
19	0xbec8905f	-0.39172646
20	0x3f0a6914	0.54066586
21	0xbeae2f4e	-0.34020466
22	0xbe4e817e	-0.20166585
23	0x3d98ee50	0.074673295
24	0xbd8f07a2	-0.06983878
25	0xbe937f94	-0.28808272
26	0xbea86854	-0.32892096
27	0x3ec204fc	0.37894428
28	0xbea173d3	-0.3153368
29	0x3f046c53	0.5172779
30	0xbc7ad929	-0.015310564
31	0x3eb58e71	0.35460237
32	0x3f081c46	0.5316814
33	0xbed7b68c	-0.4213146
34	0x3e540e30	0.20708537
35	0x3f2769a3	0.65395564
36	0xbdb34c94	-0.087548405
37	0xbd7daf20	-0.06193459
38	0x3e3cd2a8	0.18439734
39	0x3ea7bd1c	0.32761467
40	0x3dfc29f0	0.123126864
41	0x3f447d82	0.7675401
42	0xbf29ba4f	-0.6629991
43	0x3e85f119	0.26160505
44	0x3e4d39fc	0.2004165
45	0x3e60d35a	0.21955624
46	0xbf496930	-0.7867613
47	0x3ec86d08	0.39145684
48	0xbe567f95	-0.20947106
49	0x3f35587f	0.7083816
50	0x3eff0394	0.49807417
51	0x3f08339b	0.53203744
52	0x3f0964b8	0.5366931
53	0xbe187687	-0.14888965
54	0x3ee7f2c1	0.45302394
55	0xbeda64d5	-0.42655054
56	0x3f213d63	0.62984294
57	0xbdbe065c	-0.09278557
58	0x3f32163d	0.6956518
59	0xbd886ca7	-0.06661349
60	0x3e6a09fa	0.22855368
61	0x3f209090	0.62720585
62	0xbd37d12a	-0.04487721
63	0xbe2e65fe	-0.17031094
64	0xbee0b3a7	-0.43887064
65	0xbe6770dc	-0.22601646
66	0x3eb30fd1	0.34973004
67	0x3f348f86	0.705315
68	0x3ead460f	0.33842513
69	0xbebd07aa	-0.3691991
70	0xbeee24d1	-0.46512464
71	0x3f5a581d	0.852907
72	0xbe298edf	-0.16558407
73	0x3f1e2b20	0.61784554
74	0xbee8ace0	-0.45444393
75	0x3f010c2c	0.504092
76	0x3e5b23c9	0.2140037
77	0xbae2e972	-0.0017312004
78	0x3f08a67a	0.53379023
79	0xbf06c172	-0.52638924
80	0x3e9b50a8	0.30334973
81	0xbe6c9cec	-0.23106736
82	0xbef898d7	-0.48554108
83	0xbedd7ad2	-0.43257767
84	0x3f282da2	0.6569463
85	0x3ec160c3	0.37769136
86	0x3daeb864	0.085312635
87	0xbd2820b0	-0.0410468
88	0x3d0770a0	0.033066392
89	0xbf04875f	-0.5176906
90	0xbedc6583	-0.43046197
91	0xbe73f621	-0.2382436
92	0x3ee820ee	0.45337623
93	0x3ef807f1	0.4844356
94	0x3ebc1636	0.36735696
95	0xbe5b590b	-0.21420686
96	0x3f61fcb1	0.882762
97	0xbe0a1563	-0.13484721
98	0xbee7d765	-0.4528152
99	0x3ee49674	0.44646037
100	0xbee7e0f4	-0.45288813
101	0x3e17f438	0.14839256
102	0xbd137cab	-0.036007565
103	0x3ecc51dc	0.39906204
104	0x3f1914ec	0.5979755
105	0x3e6fcb41	0.23417379
106	0x3f11eb9e	0.5700015
107	0x3ecf54a7	0.40494272
108	0x3d7f49ca	0.06232623
109	0x3f135a1f	0.5755939
110	0x3e3148ae	0.17312881
111	0xbedaf894	-0.42767775
112	0xbde2a0a7	-0.11065798
113	0x3f05606a	0.5210024
114	0xbee71c2e	-0.45138687
115	0x3db9a9dc	0.09065601
116	0x3f025cd9	0.50922924
117	0x3ed8faa9	0.4237874
118	0x3eeb2aa0	0.45930958
119	0xbbf82f51	-0.007574
120	0x3f3d52d6	0.7395452
121	0xbee4050a	-0.44535094
122	0xbdf8c28a	-0.121464804
123	0x3f186343	0.5952646
124	0xbeb76275	-0.35817304
125	0xbef4a0a6	-0.47778815
126	0xbdb1b8e6	-0.08677845
127	0xbe848527	-0.25882837
128	0xbf0ff069	-0.5622621
129	0xbef0d1fa	-0.470352
130	0xbe37c194	-0.17944938
131	0x3da56b70	0.08077133
132	0x3ed3e3de	0.41384786
133	0xbeea830c	-0.45803106
134	0x3e1ae31c	0.15125698
135	0x3ec759b7	0.38935634
136	0x3eecd609	0.46257046
137	0x3f04eeae	0.51926696
138	0xbee9b99c	-0.4564942
139	0x3ea42b97	0.32064506
140	0x3f5510f2	0.8322898
141	0xbfe7066d	-1.8048836
142	0xbf1e4fe2	-0.6184064
143	0xbfc4e80c	-1.5383315
144	0xbefc1b76	-0.492397
145	0xbe7509b9	-0.2392949
146	0x3e369b9c	0.17832798
147	0xbe1ca532	-0.15297392
148	0xbee68158	-0.45020556
149	0x3d0aad30	0.03385657
150	0xbf0ef7d6	-0.5584692
151	0xbcea3160	-0.028587997
152	0xbee3bdb9	-0.44480684
153	0xbdd549c7	-0.104144625
154	0x3f31cec9	0.69456154
155	0xbde4e10f	-0.11175739
156	0x3e876779	0.2644613
157	0xbeb69255	-0.35658517
158	0x3d1b22e7	0.037875082
159	0xbee7d32d	-0.45278302
160	0x3e20ca79	0.15702237
161	0x3e42393c	0.18967146
162	0x3eb55252	0.35414368
163	0xbe8ccf6d	-0.27502003
164	0xbeca8bd3	-0.39559802
165	0x3e25d7e4	0.16195637
166	0x3b973b80	0.0046152472
167	0x3be73180	0.0070554614
168	0xbe784bf4	-0.24247724
169	0xbe9ed378	-0.31020713
170	0x3ee84aa8	0.45369458
171	0x3ed1725a	0.40907556
172	0xbef60041	-0.4804707
173	0xbe679646	-0.22615919
174	0x3d1722d1	0.036898438
175	0xbe1b4b26	-0.15165386
176	0xbe386942	-0.18008903
177	0x3e835e02	0.2565766
178	0xbeca3524	-0.39493668
179	0xbe5daf1e	-0.21648833
180	0x3f1183fa	0.56842005
181	0xbe8ac287	-0.27101538
182	0xbe1e328e	-0.15448973
183	0xbde000bb	-0.10937639
184	0xbf14d99b	-0.5814454
185	0x3f5dfe50	0.86716175
186	0xbea48f0d	-0.3214039
187	0xbef7f322	-0.48427683
188	0x3e7ea1cd	0.2486641
189	0x3d87ffb0	0.066405654
190	0xbe5b057a	-0.21388808
191	0x3d037840	0.0320971
192	0xbe8194c2	-0.25308806
193	0x3ea7fb95	0.3280913
194	0xbe6aa9ff	-0.22916411
195	0x3e914b65	0.28377834
196	0xbe9f3cda	-0.31101114
197	0xbe0da5cc	-0.13832778
198	0xbd6785c6	-0.05652406
199	0x3ea417a7	0.32049295
200	0xbdf975d1	-0.12180675
201	0x3e5daa79	0.21647061
202	0x3f297ef6	0.6620935
203	0xbe66e5c5	-0.22548588
204	0xbf0f6a3c	-0.56021476
205	0x3eba9da3	0.36448392
206	0x3f3dd940	0.7415962
207	0xbe16f05f	-0.14740132
208	0xbf35a624	-0.70956635
209	0x3ecda041	0.40161327
210	0xbef46ee6	-0.4774086
211	0xbe72e074	-0.23718435
212	0x3f07676a	0.5289217
213	0x3e954b5c	0.29159057
214	0xbcb0ab36	-0.021566015
215	0x3e880077	0.26562855
216	0xbf20c1ff	-0.62796015
217	0x3f1c9e1c	0.61178756
218	0x3de36cd8	0.11104745
219	0xbe888b50	-0.26668787
220	0xbf12e51e	-0.57380855
221	0x3d8ac1a2	0.06775214
222	0xbe8eb5df	-0.27873132
223	0xbedad63f	-0.42741582
224	0x3f24042b	0.6406886
225	0xbf06165f	-0.52377886
226	0x3f2bf70e	0.6717385
227	0x3df2cc32	0.118553534
228	0x3e387290	0.18012452
229	0xbf0e81b2	-0.5566665
230	0x3eb3465a	0.3501461
231	0xbeb71e27	-0.35765192
232	0x3dbe8150	0.09302008
233	0xbd688080	-0.056763172
234	0x3e833dc0	0.2563305
235	0xbf000902	-0.50013745
236	0xbe2bca1a	-0.16776314
237	0xbedec77b	-0.43511567
238	0xbef8a14f	-0.4856057
239	0x3f19a354	0.60014844
240	0x3d11cc50	0.03559524
241	0x3e8565d2	0.26054245
242	0xbef3f146	-0.47645015
243	0xbebe17e4	-0.37127602
244	0xbe8f24d8	-0.27957797
245	0x3e0162a0	0.12635279
246	0x3f027892	0.50965226
247	0x3e73bbcb	0.23802106
248	0xbe7acbf8	-0.2449187
249	0x3dac9832	0.084274665
250	0x3f2eccc5	0.68281204
251	0xbea33060	-0.31872845
252	0xbef7f077	-0.48425648
253	0xbdff4437	-0.12464183
254	0xbeed251b	-0.46317372
255	0xbf1be6ec	-0.60899234

fc1.bias f4 [2048]
0	0x3d66f77d	0.056388367
1	0xbea9e820	-0.3318491
2	0x3de19ef4	0.11016646
3	0xbe51ce0c	-0.20488757
4	0x3bd28c03	0.006425382
5	0xbf1a8f18	-0.60374594
6	0xbedf6958	-0.43635058
7	0xbeb52aa3	-0.35384092
8	0x3ec86b53	0.39144382
9	0x3e4d61af	0.20056795
10	0xbf28246a	-0.65680563
11	0xbd25c957	-0.040475216
12	0xbf0051fa	-0.50125086
13	0xbe211b8c	-0.15733165
14	0x3e2c7e9e	0.16845176
15	0x3e3ff7cf	0.18746875
16	0x3e929bd7	0.2863452
17	0x3e512aad	0.20426436
18	0x3ded528c	0.1158801
19	0x3f0b5ca1	0.54438215
20	0x3e8447ae	0.25835937
21	0xbdf549fc	-0.11977002
22	0xbf3e6796	-0.7437681
23	0x3cdb1058	0.026741192
24	0x3dbd7aa6	0.09251909
25	0x3e47ec1d	0.19523664
26	0x3e440a31	0.19144513
27	0xbe4fafca	-0.20281902
28	0xbf13d6a3	-0.57749385
29	0xbecbfd75	-0.3984181
30	0x3ebcd25d	0.36879244
31	0x3ecc9e50	0.39964533
32	0xbe746ee5	-0.23870428
33	0xbf0a5725	-0.5403922
34	0xbd61d8d6	-0.05513843
35	0xbcc4ce66	-0.0240242
36	0xbd415386	-0.047198795
37	0xbecfbd7a	-0.40574247
38	0x3da82538	0.08210224
39	0xbee7d4b1	-0.45279458
40	0xbd885062	-0.06655957
41	0x3e2d2bfa	0.16911307
42	0x3ef420c9	0.47681263
43	0xbe30acfc	-0.17253488
44	0xbef5977a	-0.4796713
45	0x3f01a000	0.50634766
46	0xbefb7b09	-0.49117306
47	0x3ef1fc4f	0.4726281
48	0xbd4f4cb9	-0.050610278
49	0xbece913a	-0.40345174
50	0xbd845258	-0.06461018
51	0x3b163daf	0.002292495
52	0x3efb40bf	0.49072835
53	0x3efd61ab	0.49488577
54	0x3e51d766	0.20492324
55	0xbeea28da	-0.45734292
56	0xbf092b64	-0.53581834
57	0x3d4a3f9d	0.049377073
58	0x3ef27370	0.47353697
59	0x3e79ff73	0.24413852
60	0x3eb206d5	0.34770837
61	0xbd8ed67a	-0.06974502
62	0x3f0bb8bd	0.54578763
63	0xbe9f1ae3	-0.310752
64	0x3db87e38	0.09008449
65	0x3e86bb0f	0.2631459
66	0x3edfb5c7	0.43693373
67	0xbda9aad0	-0.08284533
68	0xbd5eb511	-0.054371897
69	0x3ec71cd9	0.38889197
70	0xbeef0452	-0.46682984
71	0x3afeb767	0.001943332
72	0x3eb95237	0.36195537
73	0x3f17d724	0.59312654
74	0x3f071d3b	0.5277898
75	0x3e5a9c81	0.21348764
76	0xbe9d1511	-0.30680135
77	0xbee596cc	-0.4484161
78	0xbeb5095c	-0.35358703
79	0x3ef3f342	0.47646528
80	0xbeafbdc2	-0.3432446
81	0xbe4f793a	-0.20261088
82	0xbd9a8856	-0.07545535
83	0x3eeba461	0.4602385
84	0x3f1babd7	0.6080908
85	0x3d49c836	0.0492632
86	0xbe9e57df	-0.30926415
87	0xbeac4b15	-0.33651033
88	0xbdd18906	-0.10231213
89	0x3e9c1d22	0.30490977
90	0x3e89c3b7	0.2690713
91	0xbf0dc67d	-0.55380994
92	0xbe153d0e	-0.14574072
93	0x3ee4683c	0.44610775
94	0xbf160699	-0.5860382
95	0x3f074672	0.52841866
96	0x3ecca1e1	0.39967254
97	0x3f05cc63	0.52264994
98	0x3d208316	0.039187513
99	0x3e7788d4	0.2417329
100	0x3d017c08	0.031612426
101	0xbc96e814	-0.01842121
102	0xbdd2a08b	-0.102845274
103	0x3e6c0a6c	0.2305085
104	0xbe7e12e4	-0.24811894
105	0x3edb6611	0.42851308
106	0x3ecdcda2	0.40195948
107	0x3c69f1eb	0.014278869
108	0x3d25f824	0.04051985
109	0xbf04532a	-0.516894
110	0x3edc6186	0.43043154
111	0x3e6ed0af	0.23321794
112	0x3e88a5f1	0.26689103
113	0xbc4c98b9	-0.012487584
114	0xbf07bb07	-0.53019756
115	0x3ed5bff1	0.41748002
116	0x3ebfcb9b	0.37460026
117	0x3d020d15	0.031750757
118	0x3f064af1	0.524581
119	0x3e1fa352	0.15589646
120	0xbe6bbbd2	-0.23020867
121	0x3e2260a0	0.15857172
122	0xbeb231aa	-0.34803516
123	0x3d030df5	0.031995732
124	0x3e0fdd85	0.14049347
125	0x3e84b5a1	0.25919822
126	0x3ea9a98c	0.33137167
127	0x3ea19124	0.31556046
128	0x3bedd8b4	0.007258499
129	0xbf11cbee	-0.56951797
130	0x3d7b445d	0.061344493
131	0x3e3c8c11	0.18412806
132	0xbe9e8ddf	-0.30967614
133	0xbe3d2192	-0.18469837
134	0xbe2d3ff2	-0.16918924
135	0xbe4f5346	-0.2024661
136	0x3bc08879	0.005875644
137	0xbea124ee	-0.31473488
138	0xbf1023f3	-0.56304854
139	0xbe52811c	-0.20557064
140	0x3e2a230e	0.16614935
141	0x3ed7b222	0.42128092
142	0xbe402b38	-0.18766487
143	0x3e423b44	0.1896792
144	0xbee06d20	-0.43833256
145	0x3ec110e1	0.3770819
146	0xbcb89b3d	-0.02253496
147	0x3de6fcb4	0.11278668
148	0x3e05392d	0.13010092
149	0x3ed283ad	0.41116086
150	0x3eebe48d	0.46072808
151	0x3c4ab9e2	0.0123734195
152	0x3ec95f36	0.39330453
153	0x3e88d63a	0.26725942
154	0x3ee9eeed	0.45690098
155	0xbe16a98e	-0.14713117
156	0xbf124430	-0.57135296
157	0x3dc3d2e2	0.09561707
158	0xbefec775	-0.4976155
159	0x3eef09d1	0.46687177
160	0xbe156079	-0.14587583
161	0x3ec66a70	0.3875308
162	0x3e2307f1	0.15920998
163	0x3d1ab61f	0.03777134
164	0xbe0db28a	-0.13837638
165	0xbd6138e7	-0.054985907
166	0xbdb8dfc1	-0.09027053
167	0x3eacb89e	0.33734602
168	0x3eff2ac3	0.49837312
169	0x3cf7c9db	0.03024762
170	0xbec8f04b	-0.3924583
171	0xbe1dcfd0	-0.15411305
172	0xbed1d68c	-0.40984
173	0x3cf8fb4e	0.030393269
174	0xbe4cf0ed	-0.20013781
175	0xbe4d9d6c	-0.20079583
176	0xbf064879	-0.52454334
177	0xbdfc125d	-0.1230819
178	0xbee70453	-0.45120487
179	0x3ce81e2a	0.028334696
180	0x3f040ae2	0.51579106
181	0x3e75a2da	0.23987904
182	0x3db3dfca	0.08782919
183	0x3ca70b21	0.020391049
184	0x3e8ccd1d	0.2750024
185	0xbf0c637c	-0.548393
186	0x3eaa85cc	0.33305204
187	0xbdde702f	-0.10861241
188	0x3ea751ff	0.32679746
189	0x3e7bca6e	0.2458894
190	0xbe7c96d0	-0.24666905
191	0xbf1226ac	-0.5709026
192	0x3f07ee9c	0.53098464
193	0x3eaa241e	0.3323068
194	0x3e8927ea	0.26788265
195	0x3db25b13	0.08708777
196	0xbb64236c	-0.0034811152
197	0x3e2ea935	0.17056735
198	0xbf00f498	-0.5037322
199	0xbe6e4b30	-0.2327087
200	0xbed9aa7c	-0.42512882
201	0xbe072ed7	-0.13201462
202	0x3d804884	0.06263831
203	0x3e33e4e8	0.1756779
204	0xbef622f4	-0.48073542
205	0xbe99b4ad	-0.30020657
206	0xbf0c166c	-0.54721713
207	0x3e003bda	0.12522832
208	0x3f03504c	0.512944
209	0xbef68ef4	-0.4815594
210	0x3f022a69	0.5084596
211	0x3db02a6b	0.086018406
212	0x3ea46e6b	0.32115492
213	0x3d5a6aba	0.05332444
214	0xbcebf4da	-0.028803278
215	0xbef352d6	-0.47524136
216	0x3c9f03af	0.019410936
217	0xbd51fc10	-0.051265776
218	0x3d21a558	0.039464325
219	0x3f00fa4f	0.5038194
220	0x3ea493dd	0.3214406
221	0x3e56047c	0.20900148
222	0x3e65f123	0.22455268
223	0x3ea30af2	0.31844288
224	0xbeb3faee	-0.35152382
225	0x3d33d4a3	0.043903958
226	0x3e38e8fa	0.18057624
227	0x3e9c25ff	0.3049774
228	0x3ef48c75	0.4776341
229	0xbede068c	-0.4336437
230	0xbed97003	-0.4246827
231	0xbe3e9efa	-0.18615332
232	0x3d130606	0.035894416
233	0xbe2156cd	-0.15755768
234	0xbe42f5ec	-0.19039124
235	0x3e2b709c	0.16742176
236	0x3f08391a	0.5321213
237	0x3ed0e4af	0.40799472
238	0xbce22790	-0.027606755
239	0x3e240047	0.16015731
240	0x3edf35bf	0.43595693
241	0x3bceacbb	0.006307212
242	0x3e8e3c92	0.27780586
243	0x3d815c67	0.063164525
244	0xbf253f9c	-0.64550185
245	0x3ee2dee3	0.44310674
246	0xbee23df2	-0.44187886
247	0x3c13a6e1	0.009011955
248	0x3d46ed52	0.04856617
249	0x3ef88b21	0.48543647
250	0xbf27e968	-0.65590525
251	0x3eaf37d6	0.34222287
252	0x3e40a3d6	0.18812498
253	0xbcfc89ee	-0.030827489
254	0xbd86511e	-0.065584406
255	0x3f1b8dcf	0.6076326

fc2.weight f4 [4, 2048]
0	0x3ca10b48	0.0196587
1	0x3c6c1596	0.014409443
2	0xbcc94b30	-0.024571985
3	0xbc70d101	-0.014698268
4	0xbd333835	-0.043754775
5	0x3f59c23f	0.8506202
6	0x3b7c19b8	0.0038467478
7	0x3b89370c	0.0041874703
8	0x3da8e4e8	0.082467854
9	0x3c4c43c1	0.012467326
10	0xc09a0dc8	-4.8141823
11	0xbebfa8d5	-0.37433496
12	0xbb868158	-0.0041047744
13	0x3e160fd3	0.14654474
14	0xbe2fbf1a	-0.17162743
15	0xbdafde4b	-0.08587321
16	0xbbb1d259	-0.0054266867
17	0x3b935ad8	0.0044969134
18	0x38e82583	0.00011069609
19	0x35bf5a70	1.425693e-06
20	0xbc1b4e42	-0.009479107
21	0xbc94dcab	-0.018171629
22	0xbdccd12f	-0.10000836
23	0x3fab4a74	1.3382096
24	0xbcb06007	-0.021530164
25	0xbc7a7c83	-0.015288475
26	0x3bb33991	0.005469509
27	0xbca3210f	-0.019913225
28	0x3f4e38c5	0.80555373
29	0xbc6e9ae4	-0.014563296
30	0xb9c8f9b0	-0.00038333004
31	0xbc67b850	-0.014143065
32	0xc036becc	-2.8553953
33	0xbca818e9	-0.02051969
34	0xba0d0ed0	-0.00053809304
35	0xba1d27e2	-0.0005995018
36	0x3b898f7c	0.004198013
37	0x3b4f8398	0.003166413
38	0xbdec5700	-0.115400314
39	0x3f7669aa	0.9625498
40	0x3ec233dd	0.37930194
41	0x3b568e41	0.0032738599
42	0x3c29b93e	0.010359107
43	0x3cad6c29	0.021169739
44	0x3bca2a94	0.0061696265
45	0x3c830970	0.015995711
46	0xc0ace8c8	-5.4034157
47	0x40d95adf	6.7923427
48	0x3c19a9b7	0.009378842
49	0xbc17d5c5	-0.009267275
50	0xbca5e9c3	-0.020253068
51	0xbd805265	-0.062657155
52	0x3caddbf2	0.021223042
53	0x3c67eac3	0.014155093
54	0x3c0773d3	0.008267361
55	0xbb6125d0	-0.0034354813
56	0x3c717be6	0.014739012
57	0x3f1d4b02	0.6144258
58	0x3b5414a3	0.0032360933
59	0x3da0c5f2	0.07850255
60	0x3c8ceb68	0.017202094
61	0x3f49442e	0.7861966
62	0xba731b00	-0.00092737377
63	0x3abd9920	0.001446519
64	0xbc9769fa	-0.01848315
65	0xbcb783e9	-0.022401767
66	0x3c9d2e79	0.019187199
67	0xbd0d84cf	-0.034550484
68	0xbec3e731	-0.38262323
69	0xbd5f8d34	-0.05457802
70	0x3ca92e3b	0.020651927
71	0xbd0b6694	-0.034033373
72	0xbc1af7a7	-0.009458459
73	0x3c767b5f	0.015044062
74	0x3af4817c	0.0018654312
75	0x3cdcb694	0.026942529
76	0x3c807189	0.015679138
77	0x3ca29f8d	0.01985147
78	0x3b91a810	0.0044450834
79	0x39efff3b	0.00045775794
80	0xbca41196	-0.020027917
81	0xbc48d5ab	-0.012257974
82	0xbd00d3e2	-0.031452067
83	0xb7a95318	-2.0185063e-05
84	0x3cf79e2e	0.030226793
85	0xbe4e4727	-0.2014433
86	0x3c860dfd	0.016364092
87	0x3bc2d191	0.0059453924
88	0x3e67c69e	0.2263436
89	0x3a593f9f	0.00082873733
90	0xb95a5eec	-0.00020825461
91	0x3f896952	1.0735266
92	0xbc328a3e	-0.010897217
93	0x3e9769fd	0.2957305
94	0x3faddd43	1.3583149
95	0x3c9b9005	0.018989572
96	0x3bccaf17	0.0062464583
97	0x39d76205	0.00041081026
98	0xbd1bc225	-0.038026948
99	0xbd177c0e	-0.036983542
100	0xbc1f3540	-0.009717286
101	0xc08154e7	-4.041614
102	0x3e79f34d	0.24409218
103	0xbc90dc46	-0.01768316
104	0xbc80806d	-0.015686238
105	0x3f3bdb2b	0.733813
106	0xbc741863	-0.014898392
107	0xbc401640	-0.011724055
108	0xbcc50834	-0.024051763
109	0x3cae5873	0.02128241
110	0x3c669774	0.014074195
111	0x3affa0ab	0.0019502839
112	0x3c6f4801	0.014604569
113	0x3bfca19c	0.007709695
114	0xbc652e5c	-0.013988104
115	0x3cf8cda3	0.030371493
116	0x3cba66c3	0.022754079
117	0x3b3bd0a7	0.0028658302
118	0x3c673003	0.014110568
119	0x3cdc3983	0.026882892
120	0xc02bc6d2	-2.68401
121	0xbe3db275	-0.18525107
122	0xbc4dc3f7	-0.012558929
123	0x410b8181	8.719117
124	0x3c07c665	0.008287047
125	0x3a8a7d90	0.0010565985
126	0x3cc21d24	0.023695536
127	0xbc690b56	-0.014223894
128	0xbddaff76	-0.106932566
129	0x3f7729cc	0.9654815
130	0x3e8534fe	0.26016992
131	0xbc1e4b07	-0.009661443
132	0xbc5113c3	-0.012761059
133	0xbc8448c8	-0.016147986
134	0xbd4d5621	-0.050130967
135	0x3e570adb	0.21000235
136	0x3c4c9647	0.012487001
137	0xbc320034	-0.010864306
138	0xbc83ac69	-0.016073423
139	0x3a5922fc	0.0008283106
140	0xbdea47f7	-0.114395075
141	0x3d59ccdd	0.05317389
142	0x3feb09b1	1.8362333
143	0x3c7eb712	0.015546577
144	0xbb9df578	-0.004820522
145	0x3d42f8c9	0.04760054
146	0x3b51c58f	0.0032008623
147	0x3c105d4d	0.008811307
148	0x3a2c1045	0.00065637036
149	0xbbd4b69e	-0.006491496
150	0xbc20c725	-0.009813105
151	0xbdb51cf2	-0.088434115
152	0xbcbc723c	-0.02300369
153	0xbc400156	-0.0117190685
154	0x3ce84a43	0.028355723
155	0x3e80db1c	0.25167167
156	0x3f62c5f7	0.8858332
157	0xbb846fe9	-0.004041661
158	0x3ca4d00f	0.020118741
159	0x3e388845	0.18020733
160	0x3e844d3e	0.2584018
161	0xbc6c9f0a	-0.014442215
162	0x3b739f03	0.0037173636
163	0xbb7b25df	-0.0038322133
164	0xbc5f73fd	-0.013638494
165	0xbcf990ed	-0.030464614
166	0xbd4b6ed8	-0.049666256
167	0x3cae46b4	0.021273948
168	0xbbfa7b47	-0.0076440903
169	0x3fa481e3	1.2852138
170	0x3f2708e8	0.65247965
171	0x3e61f22d	0.22065039
172	0x3bc20e60	0.005922124
173	0x3caeab98	0.021322057
174	0x3e03c6e8	0.12868845
175	0x3c914c99	0.01773672
176	0x3f099517	0.5374312
177	0xbbf0c80d	-0.0073480667
178	0xbadf7420	-0.0017048158
179	0x3bd59f8e	0.0065192645
180	0x3cda45e2	0.02664465
181	0xbd99c87c	-0.075089425
182	0x3cc6e828	0.024280623
183	0xbd9463ec	-0.07245621
184	0x3be9cd05	0.007135036
185	0xbc9bacf9	-0.019003378
186	0xbe155fc3	-0.14587311
187	0xbb172f19	-0.0023068844
188	0x3dc31dbe	0.09527157
189	0x3c636fea	0.013881663
190	0xbcb361aa	-0.021897156
191	0x3c2163a6	0.009850418
192	0xbbfcd89f	-0.007716253
193	0x3cb33797	0.021877093
194	0x3f82406a	1.0175908
195	0xbe6a916e	-0.2290704
196	0xbd218acd	-0.03943901
197	0x3c91c3c4	0.017793544
198	0x3ef2e372	0.47439152
199	0xbc25a8b8	-0.0101110265
200	0x3bc3fa0c	0.0059807356
201	0x3e904ef9	0.2818525
202	0x3bfeb7b7	0.0077733654
203	0xbc38ec7a	-0.011286849
204	0x3c1bcad2	0.009508805
205	0xba9dadd0	-0.001202995
206	0xbbb798e0	-0.005602941
207	0x3b8c061b	0.0042731888
208	0x3c0e1714	0.008672494
209	0x3c4378ae	0.011930628
210	0xbc256d25	-0.010096823
211	0x3c73c624	0.014878783
212	0x3f3d901d	0.74048024
213	0x3f930abc	1.1487651
214	0xbeb46a03	-0.3523713
215	0xbc80b88d	-0.015713
216	0xbb7e9450	-0.0038845725
217	0x3be5be90	0.007011242
218	0x3c760f60	0.015018314
219	0x3c25849b	0.010102416
220	0x3c6b7a75	0.014372458
221	0xbb798c24	-0.0038077915
222	0xbce9266e	-0.028460708
223	0x3c9dc48f	0.019258766
224	0xbc10037c	-0.008789893
225	0xbe82a38f	-0.2551541
226	0x3b7fd14c	0.0039034663
227	0x3a9a4c94	0.001177209
228	0xba4a5f9a	-0.0007719934
229	0x3c23a3ba	0.009987766
230	0x3f51b302	0.8191377
231	0x3c69be92	0.014266627
232	0x400c3136	2.1905036
233	0xc09d28cb	-4.9112296
234	0x3e5b363c	0.21407408
235	0xb9be60a4	-0.00036311627
236	0x3d0dd653	0.034628224
237	0xbd843647	-0.06455665
238	0x3ed37314	0.41298735
239	0xb9f0a85f	-0.00045901813
240	0xbbbc1600	-0.0057399273
241	0xbcd44164	-0.025910087
242	0xba86310a	-0.0010238003
243	0x3f947b16	1.1600063
244	0x3f9291da	1.145076
245	0x3c9b3d4e	0.01895013
246	0xbc0c1d84	-0.008551959
247	0x3fd2946f	1.6451548
248	0xba920638	-0.0011140769
249	0xbc09dc51	-0.008414344
250	0xc0e5f388	-7.185978
251	0x3c001415	0.007817288
252	0x3c4f6270	0.012657747
253	0xbce08cf3	-0.02741096
254	0xbcae4e96	-0.021277707
255	0xbbb67c4d	-0.005569017

fc2.bias f4 [4]
0	0x3c02b8f6	0.007978668
1	0xbcab28b1	-0.020893427
2	0x3d688ae3	0.056773078
3	0x3c071ce1	0.008246631
